ppo/path_tracking_pretrain_policy.pt (torch, 2455 bytes, 5 tensors)

policy.0.weight f4 [8, 2]
0	0x3e8aefb9	0.2713602
1	0x3f850b6b	1.039411
2	0x3e360042	0.17773536
3	0xbefa5949	-0.48896244
4	0x3ee41b11	0.445519
5	0xbe497795	-0.19674523
6	0x3f41f969	0.75771195
7	0x3f8d50dd	1.1040303
8	0xbf54c332	-0.83110344
9	0xbe2fd653	-0.17171602
10	0x3f0e14c6	0.5550045
11	0x3faa7858	1.3317976
12	0xbf1d4d8e	-0.61446464
13	0xbf7bfa6a	-0.98428977
14	0x3d8198eb	0.06327995
15	0xbea9c846	-0.3316061

policy.0.bias f4 [8]
0	0x3eea26bb	0.45732674
1	0x3f2d2956	0.676412
2	0xbf0f535c	-0.5598657
3	0x3e00b598	0.12569273
4	0xbec6e934	-0.38849795
5	0x3eedfdd9	0.46482733
6	0x3f1ab9d9	0.6043983
7	0xbf4b6e42	-0.79465115

policy.2.weight f4 [8, 8]
0	0xbe11c13c	-0.1423387
1	0x3e918e26	0.28428763
2	0x3e806080	0.25073624
3	0xbf869366	-1.0513732
4	0x3e29c307	0.16578303
5	0xbe87109a	-0.26379853
6	0x3f1ed82c	0.620486
7	0x3db6fc5a	0.08934851
8	0xbe506f23	-0.20354895
9	0xbe0c57d5	-0.1370538
10	0xbe8f1e99	-0.27953032
11	0x3e7286b0	0.23684192
12	0xbe66412f	-0.22485803
13	0xbda1cd0b	-0.07900437
14	0xbdf039bd	-0.11729763
15	0xbe1fc89a	-0.15603867
16	0x3eac242d	0.3362135
17	0xbdb4ab64	-0.08821753
18	0x3e664ab8	0.2248944
19	0x3f41e1c8	0.7573514
20	0xbf0706af	-0.52744573
21	0x3ecabfbe	0.39599413
22	0xbe35d3e7	-0.17756616
23	0x3e8bbbc7	0.272917
24	0x3eabe7e2	0.3357535
25	0xbdd716e0	-0.1050241
26	0x3bf80886	0.0075693754
27	0x3f57bb87	0.8427052
28	0x3dc38797	0.09547346
29	0x3f23e115	0.6401532
30	0xbe09bed6	-0.13451704
31	0xbe907a56	-0.28218335
32	0xbe974bff	-0.29550168
33	0x3de87db4	0.11352101
34	0x3e4bbb1a	0.19895592
35	0xbedcea05	-0.43147293
36	0xbe20b1fb	-0.15692894
37	0xbdd0c52f	-0.1019386
38	0xbdf89972	-0.12138642
39	0xbe8139e6	-0.25239486
40	0x3dccbb2f	0.0999664
41	0xbda2da4b	-0.07951792
42	0xbe8cb67c	-0.27482975
43	0x3e9ba9fc	0.30403125
44	0xbc89366e	-0.016749587
45	0x3ddc0909	0.10743911
46	0xbde277a8	-0.11057979
47	0x3e81b02d	0.25329724
48	0x3f152bd3	0.58269995
49	0xbd092a00	-0.03348732
50	0xbe07501c	-0.13214153
51	0x3f173644	0.5906718
52	0xbebe3e07	-0.37156698
53	0x3f10c0b2	0.5654403
54	0xbf09863f	-0.5372047
55	0xbb6b2735	-0.0035881524
56	0x3f306145	0.6889842
57	0xbe0ca4cd	-0.13734742
58	0xbe37c39a	-0.1794571
59	0x3ed309cc	0.41218412
60	0x3ebde2ec	0.3708719
61	0x3f4801b2	0.78127587
62	0xbea2de60	-0.31810284
63	0xbd42b230	-0.047533214

policy.2.bias f4 [8]
0	0x3e36af79	0.17840375
1	0x3d3e08a9	0.046394978
2	0xbd56faea	-0.052485384
3	0xbe73b979	-0.23801221
4	0xbd0e1cef	-0.034695562
5	0xbe83d16f	-0.25745723
6	0xbdb2b30f	-0.08725559
7	0xbe64df39	-0.22350778

policy.4.weight f4 [1, 8]
0	0x3f3e5c3b	0.7435948
1	0xbdafdaf6	-0.08586685
2	0xbee77c6a	-0.45212108
3	0xbf4e31d2	-0.8054477
4	0xbd5cdb4a	-0.053920068
5	0x3ebc3b0c	0.367638
6	0xbf82be42	-1.0214312
7	0xbf5bfa8e	-0.8592919
