ROA_plot/path_tracking_state_to_save_lyap.pt (torch, 3351 bytes, 5 tensors)

lyapunov.0.weight f4 [16, 2]
000000 5a 90 5b bf 34 2d a8 bf d3 8d e0 3e f1 29 26 40
       -0.8576714 -1.3138795 0.43858203 2.59631
000010 00 77 d2 bd c2 be 9c 3f 42 48 1d bf 43 34 ab bf
       -0.10276604 1.2245715 -0.6143838 -1.3375324
000020 13 9d e7 bf 4a 52 10 c0 81 34 e7 3f bd 5d 96 be
       -1.809481 -2.2550225 1.8062898 -0.29368392
000030 c0 14 34 c0 60 00 d3 bb 2c 09 39 3d 42 30 c2 3c
       -2.8137665 -0.0064392537 0.045174763 0.023704652
000040 c8 0e f3 3f 33 e8 13 40 20 e5 51 3f 34 7d fe 3f
       1.8988886 2.3110473 0.8199024 1.9881959
000050 a0 c4 b7 3d 38 21 02 c0 9f f0 08 bf 1a 9b b6 bf
       0.0897305 -2.0332775 -0.5349216 -1.4266083
000060 f4 91 8f bc 0c 35 b1 3f 17 18 19 3e a0 6b 70 bf
       -0.01752565 1.3844314 0.14950596 -0.9391422
000070 6f 6a 07 bf 4f 32 ae bf 00 18 2e 40 e1 06 9a bf
       -0.5289678 -1.3609103 2.7202148 -1.2033349

lyapunov.0.bias f4 [16]
000000 47 d3 8a 3e 42 4c 8d 3e f2 4e a4 be 11 da c7 3e
       0.27114317 0.27597243 -0.3209148 0.3903356
000010 ba ce ab 3b 56 e1 22 3c 98 e6 17 bc dc 05 0a bf
       0.0052431496 0.00994142 -0.009271286 -0.5391519
000020 28 08 dc 39 07 e0 e2 3d d7 ab b6 be ac 53 02 3f
       0.00041967747 0.11077886 -0.35677978 0.50908923
000030 28 6d 18 bf b3 e0 ef bd a4 1e 41 be ca 3f 9e 3c
       -0.5954156 -0.1171278 -0.18859345 0.019317526

lyapunov.2.weight f4 [16, 16]
000000 1e 6e f7 3c fd 8d c5 3d 52 79 8d 3f ea 6f 36 3e
       0.030203875 0.09646223 1.1052649 0.1781613
000010 8a 56 c7 3f 4d dc e7 bd 3c 8e 52 3f 3e 73 67 3e
       1.5573285 -0.11321316 0.8224828 0.22602555
000020 e9 96 0b 40 6f 91 28 3e 30 53 c0 3f a2 a5 a1 3d
       2.1810858 0.16461729 1.5025387 0.0789292
000030 39 f4 4d 3f 7f c4 86 3f 14 e5 25 3f 51 69 e2 3e
       0.8045078 1.0528716 0.6480267 0.44220975
000040 f4 4f 4d bd 0a a3 a0 be 58 2a 2a bd 56 26 c7 3d
       -0.050125077 -0.3137439 -0.04154429 0.09724109
000050 31 5f 6b be 67 ee 73 be 30 ba 1a be 50 05 31 bd
       -0.22985531 -0.23821412 -0.15110087 -0.043217957
000060 e2 8e fc bd ff 9c 22 be 61 5f 0e 3e 09 d3 f0 3b
       -0.1233194 -0.15880202 0.13903572 0.007349376
000070 86 1b c2 be df d3 33 be c6 fa b9 bd 84 94 d5 3c
       -0.37911624 -0.17561291 -0.09081034 0.026071794
000080 ea e1 49 be aa 80 11 be a1 02 07 3e 56 a5 42 be
       -0.19715086 -0.14209238 0.13184597 -0.19008383
000090 f0 e3 52 3d e2 66 8c be 1b b3 4d be a8 05 1d bd
       0.05148691 -0.27422243 -0.20087855 -0.038335472
0000a0 0e fd 9b be 6b 23 da 3d b4 0e 43 be 63 42 c6 3d
       -0.30466503 0.10651287 -0.19048578 0.09680631
0000b0 86 eb 7a 3d cd 60 0d 3c d2 7f 44 3d 4d 2e 5e be
       0.06125977 0.008629036 0.04797346 -0.2169735
0000c0 d1 2f 03 be ab b1 75 3e ad b9 af 3b 93 b8 41 3e
       -0.1281121 0.23993556 0.0053627104 0.18918066
0000d0 20 87 9e bf e0 7b 97 be 89 86 d0 bf 3c 61 2a be
       -1.2384987 -0.29586697 -1.6291057 -0.16638654
0000e0 f6 8b d8 bf 50 86 72 3e 53 56 00 bf 30 e2 4d 3e
       -1.6917713 0.23684049 -0.5013172 0.20105815
0000f0 84 67 8b 3e 79 d5 e0 3c 07 54 60 3e 4e cf 62 bf
       0.27227414 0.027445542 0.21907054 -0.8859757
000100 15 9d 0f 3e c1 37 da be 12 77 34 3f dc 3e 9e 3e
       0.14024766 -0.42620662 0.70494187 0.30907333
000110 65 9a eb 3f 08 17 5f bd cd 93 8f 3f a0 40 c5 3c
       1.8406492 -0.054465324 1.121698 0.024078667
000120 9a bd 26 40 bb b9 dd be 0d 43 9d 3f 2c 98 a3 3e
       2.6053224 -0.43305764 1.2286087 0.31952035
000130 06 f0 8e 3f d2 59 7f 3f a0 b2 8d 3f 9f 66 3f 3f
       1.1166999 0.9974643 1.1070137 0.7476596
000140 50 29 52 be 51 03 31 3f f7 1b 51 3f 92 f3 a5 bd
       -0.20523572 0.69145685 0.81683296 -0.08103098
000150 62 d3 99 3f 2d 10 42 3e 0c f6 8e 3f fc 93 92 bd
       1.2017634 0.18951483 1.1168838 -0.07157132
000160 26 6b 29 40 e3 29 85 3e d7 e6 9e 3f d4 1b e0 3d
       2.6471648 0.2600852 1.2414197 0.10942808
000170 2e be 45 3f 71 4c 67 3e d3 52 f9 3e 2f cf a3 3f
       0.77243316 0.22587754 0.48696002 1.2797602
000180 79 e6 2e 3d 9c c5 87 3e d0 93 6d 3d 9a 44 07 3d
       0.042700265 0.2651795 0.058002293 0.033024408
000190 95 40 83 bf f1 6c c6 bd 53 3c cd bf f8 11 07 bd
       -1.0254084 -0.09688748 -1.6034034 -0.03297612
0001a0 b5 5e c7 bf 6e 44 8b bd 6a 07 0a bf 7c e9 38 3e
       -1.5575777 -0.06800161 -0.5391756 0.18057817
0001b0 23 46 0c be 63 23 9b bd b7 f0 55 be de d6 34 bf
       -0.1369863 -0.07575109 -0.20892607 -0.7064036
0001c0 10 7c 01 bf a7 83 95 3f 73 32 74 3f 87 a1 cd be
       -0.5057993 1.1680802 0.9538948 -0.40162298
0001d0 71 ba a0 3e 81 f2 9e be e1 c0 95 3e 90 d0 01 be
       0.31392244 -0.3104439 0.29248717 -0.12677217
0001e0 b3 20 e6 3f 55 bf 5a 3f f6 3c 35 be fd e1 39 bf
       1.7978729 0.854482 -0.17699036 -0.72610456
0001f0 f0 9a 86 3f 1f 6b 1b bf 5f 1f 57 3f 84 72 f0 be
       1.0516033 -0.6071033 0.84032243 -0.46962368
000200 3b 21 ad bc cc d0 98 bd 94 f7 b1 3d bb 97 31 3d
       -0.02113401 -0.074617 0.086898 0.043357592
000210 9c 15 a6 be 6d 8f 6f be 68 02 03 be fc d3 77 be
       -0.32438362 -0.23394556 -0.12793887 -0.2420196
000220 b5 8a 50 be 0a 0c 2a bd 77 96 c9 3d 60 f9 b8 bd
       -0.20365413 -0.041515388 0.09843152 -0.090319395
000230 cc 29 6e 3e 5c 91 a5 bd 80 06 7b bd 18 d3 27 be
       0.23258132 -0.08084366 -0.061285496 -0.1638912
000240 19 6a 5a 3e 97 e7 97 3e e8 4a 1f be 35 97 21 3e
       0.21329536 0.29668877 -0.15555918 0.15780337
000250 f2 0e 06 c0 9a 01 27 be 1b f7 cc bf 40 ac a6 3d
       -2.0946622 -0.16309205 -1.6012911 0.08138323
000260 13 76 e1 bf 0d bd 13 3e 3a 06 5e be 02 0e f1 3d
       -1.7614158 0.14427586 -0.21682063 0.1177025
000270 9c 7b 87 be 7c 62 26 be 27 1b 52 be 14 5d 97 bf
       -0.26461494 -0.16248506 -0.2051817 -1.182528
000280 94 f9 08 be d8 a1 83 3e 73 d7 1f 3f 69 1a f2 bd
       -0.13376456 0.25709414 0.62438124 -0.118214436
000290 12 c6 54 3f c6 43 b6 bd 9e a5 32 3f 5a 29 7a be
       0.8311473 -0.088996455 0.6978396 -0.24429837
0002a0 91 5a 68 40 87 cb 15 3e 8d d3 29 3f 7c 21 07 3e
       3.6305277 0.14628421 0.66338426 0.13196367
0002b0 b6 2b 5c 3f 33 32 20 3f 72 d0 06 3f 62 73 81 be
       0.860042 0.625766 0.5266181 -0.25283343
0002c0 a8 84 ba be 2e 46 a3 bd 5b a6 bf 3d 37 04 b6 3c
       -0.36429334 -0.0797237 0.09357902 0.022218807
0002d0 b7 eb 28 3d 11 3f 41 bd 98 97 81 3d ac 20 f4 3d
       0.04124042 -0.047179285 0.06327742 0.11920294
0002e0 36 06 70 3d 39 f1 82 be e8 e5 6c bd e3 c8 5d bd
       0.058599673 -0.25574663 -0.057836443 -0.05414666
0002f0 c5 3b 8a 3e 7b 7a 70 bd 36 cf ac be b3 d1 08 be
       0.26998726 -0.058710556 -0.3375184 -0.13361244
000300 bc c6 c3 3e 65 85 da be 24 a5 ed 3c 59 c4 72 3e
       0.3823756 -0.42679897 0.02900941 0.23707713
000310 7e ee c8 3f 79 b2 42 be 4c 66 31 3f 5c 70 b1 3d
       1.5697782 -0.19013394 0.6929672 0.08664009
000320 7f cc 8d 3f d8 8a 30 be f4 70 b8 3f a2 00 89 3e
       1.1078032 -0.17240465 1.440947 0.26758295
000330 e4 e2 53 bd d3 c6 43 3f 30 3d 3f 3f d2 73 fc 3e
       -0.05173005 0.76475257 0.7470274 0.49307114
000340 c4 18 99 bd 94 90 74 3e de 0d a7 3d ef 5e ff 3d
       -0.07475427 0.23883277 0.08156942 0.12469279
000350 15 b3 9b bf d3 4a d1 bd e5 96 06 c0 34 3a c2 bd
       -1.2164026 -0.1021935 -2.1029599 -0.094837576
000360 36 1b a6 bf 51 ec bb bd 76 18 0d bf de fc cb 3d
       -1.2977054 -0.09175933 -0.5511545 0.0996034
000370 0e 85 32 be 59 35 8b 3d 11 8c 0e be 14 a7 4d bf
       -0.17433569 0.06797285 -0.13920619 -0.80333066
000380 ce 6c 6f bd be 48 d3 3d 46 c2 7c 3f 3b 2a 15 3d
       -0.058453374 0.10316609 0.9873394 0.036417227
000390 a9 ca c1 3f 38 f9 8d 3e 0e 5c 84 3f a4 70 ab 3d
       1.5139972 0.277292 1.0340593 0.08371094
0003a0 b7 16 eb 3f e8 c6 e5 3d 63 85 b1 3f 6e 87 31 3e
       1.8366307 0.11219579 1.3868831 0.17336819
0003b0 5c d1 72 3f e5 27 1c 3f 97 6a 43 3f 96 f2 dd 3e
       0.9485071 0.60998374 0.7633452 0.4334914
0003c0 ff 87 7f be 32 f7 89 be 4b 7c 1c 3e eb f6 5e bc
       -0.24954222 -0.26946408 0.15281789 -0.0136086745
0003d0 a0 5b 70 bd cc 90 89 be ee a0 5d bd 34 43 53 3e
       -0.05868113 -0.26868284 -0.054108553 0.20631105
0003e0 de 79 35 bd b5 01 ec bd 11 d8 b3 3d d7 72 79 be
       -0.044305675 -0.11523763 0.08781446 -0.24360214
0003f0 0c 8a 51 be 63 4d 96 bd 1a 84 8e be ab 80 2b 3d
       -0.20462817 -0.07338979 -0.2783516 0.041870754

lyapunov.2.bias f4 [16]
000000 2b 46 aa bb ff 94 44 3d 89 cc 2d bd 5b b8 e5 3d
       -0.005196353 0.047993656 -0.042431388 0.11216804
000010 77 b8 0d 3d 5f 8d 2a be 98 f1 59 3d 28 76 38 bd
       0.034599748 -0.16655491 0.053208917 -0.045034558
000020 25 6c 8b be a2 f3 ed 3e 3c 2c ac bb 5a 0d d8 be
       -0.27230945 0.4647494 -0.0052542966 -0.42197686
000030 db 62 ce bd b8 6f a1 3d 5f 2a 9e 3d c4 6d e6 3d
       -0.10077449 0.07882637 0.077229254 0.11251405

lyapunov.4.weight f4 [1, 16]
000000 32 64 47 3f 35 6c 09 bd fc 1b 24 3d 33 a7 d1 be
       0.7788726 -0.03355046 0.04006575 -0.40947875
000010 c0 6a 34 3f 4f cc 2f 3f be d1 00 be f8 64 a7 3f
       0.7047539 0.68671125 -0.1258001 1.3077688
000020 5a ad 7e bd 65 08 06 bf 83 64 2c 3f 10 30 bd bd
       -0.06217704 -0.5235656 0.6734087 -0.09237683
000030 8c ac 19 3f a1 60 6b be 9a 8f 1b 3f 8c 49 e8 bb
       0.6002891 -0.2298608 0.60765994 -0.0070888456
