ROA_plot/pendulum_state_to_save_lyap.pt (torch, 1759 bytes, 3 tensors)

lyapunov.0.weight f4 [8, 2]
1.3806288 1.561248 -3.4431076 0.14800839 -0.46838576 0.7815025 0.24268214 0.09618723
1.3632128 0.41589415 2.2732742 -0.81859297 -1.4786751 -0.65095806 0.16662477 0.4205122
00000000: 72b8 b03f f9d6 c73f e05b 5cc0 838f 173e
00000010: 42d0 efbe 8c10 483f ab81 783e cffd c43d
00000020: c27d ae3f 14f0 d43e 537d 1140 4f8f 51bf
00000030: 3a45 bdbf 30a5 26bf af9f 2a3e 604d d73e

lyapunov.0.bias f4 [8]
-0.009099617 -0.049169905 0.4423205 -0.9210075 -0.05256339 -0.04272894 0.0018069118 -0.54490757
00000000: 8f16 15bc 6266 49bd d577 e23e 26c7 6bbf
00000010: b64c 57bd 8a04 2fbd e6d5 ec3a 107f 0bbf

lyapunov.2.weight f4 [1, 8]
1.424526 1.6800445 -0.5468369 -0.35811552 1.7597827 1.0446349 2.4295373 -0.6281001
00000000: de56 b63f b30b d73f 81fd 0bbf eb5a b7be
00000010: 8f40 e13f 99b6 853f 8a7d 1b40 2bcb 20bf
